…
        "colab": {
          "base_uri": "https://localhost:8080/"
        },
        "id": "QPzKurY89oJq",
        "outputId": "fa630830-8a9c-4f22-903d-d15bcc669d8e"
      },
      "outputs": [
        {
          "name": "stdout",
          "output_type": "stream",
          "text": [
            "Model: \"sequential\"\n",
            "_________________________________________________________________\n",
            " Layer (type)                Output Shape              Param #   \n",
            "=================================================================\n",
            " conv2d (Conv2D)             (None, 32, 32, 32)        896       \n",
            "                                                                 \n",
            " max_pooling2d (MaxPooling2D  (None, 16, 16, 32)       0         \n",
            " )                                                               \n",
            "                                                                 \n",
            " flatten (Flatten)           (None, 8192)              0         \n",
            "                                                                 \n",
            " dense (Dense)               (None, 32)                262176    \n",
            "                                                                 \n",
            " dense_1 (Dense)             (None, 10)                330       \n",
            "                                                                 \n",
            "=================================================================\n",
            "Total params: 263,402\n",
            "Trainable params: 263,402\n",
            "Non-trainable params: 0\n",
            "_________________________________________________________________\n"
          ]
        }
…
      "metadata": {
        "id": "FAqwUWxmcTLW",
        "outputId": "aed3cd96-edf3-4e35-f862-b9b0471a3dab"
      },
      "outputs": [
        {
          "name": "stdout",
          "output_type": "stream",
          "text": [
            "Number of labels: 10\n",
            "Model: \"sequential_5\"\n",
            "_________________________________________________________________\n",
            " Layer (type)                Output Shape              Param #   \n",
            "=================================================================\n",
            " conv2d_5 (Conv2D)           (None, 32, 32, 128)       13952     \n",
            "                                                                 \n",
            " max_pooling2d_5 (MaxPooling  (None, 5, 5, 128)        0         \n",
            " 2D)                                                             \n",
            "                                                                 \n",
            " flatten_5 (Flatten)         (None, 3200)              0         \n",
            "                                                                 \n",
            " dense_10 (Dense)            (None, 64)                204864    \n",
            "                                                                 \n",
            " dense_11 (Dense)            (None, 20)                1300      \n",
            "                                                                 \n",
            "=================================================================\n",
            "Total params: 220,116\n",
            "Trainable params: 220,116\n",
            "Non-trainable params: 0\n",
            "_________________________________________________________________\n"
          ]
        }
…
      "cell_type": "code",
      "execution_count": null,
      "metadata": {
        "id": "u4Y3pZr4cTLa",
        "outputId": "58731b78-5223-47e6-b12b-c6adeb2a8ee5"
      },
      "outputs": [
        {
          "name": "stdout",
          "output_type": "stream",
          "text": [
            "Model: \"sequential_8\"\n",
            "_________________________________________________________________\n",
            " Layer (type)                Output Shape              Param #   \n",
            "=================================================================\n",
            " conv2d_8 (Conv2D)           (None, 32, 32, 64)        1792      \n",
            "                                                                 \n",
            " max_pooling2d_8 (MaxPooling  (None, 10, 10, 64)       0         \n",
            " 2D)                                                             \n",
            "                                                                 \n",
            " flatten_8 (Flatten)         (None, 6400)              0         \n",
            "                                                                 \n",
            " dense_16 (Dense)            (None, 32)                204832    \n",
            "                                                                 \n",
            " dense_17 (Dense)            (None, 10)                330       \n",
            "                                                                 \n",
            "=================================================================\n",
            "Total params: 206,954\n",
            "Trainable params: 206,954\n",
            "Non-trainable params: 0\n",
            "_________________________________________________________________\n"
          ]
        }
…
      "cell_type": "code",
      "execution_count": null,
      "metadata": {
        "id": "QOyof4xRcTLe",
        "outputId": "1513cf8d-e00c-416d-d89e-0f3b13caada6"
      },
      "outputs": [
        {
          "name": "stdout",
          "output_type": "stream",
          "text": [
            "Model: \"sequential_9\"\n",
            "_________________________________________________________________\n",
            " Layer (type)                Output Shape              Param #   \n",
            "=================================================================\n",
            " conv2d_9 (Conv2D)           (None, 11, 11, 128)       31232     \n",
            "                                                                 \n",
            " max_pooling2d_9 (MaxPooling  (None, 3, 3, 128)        0         \n",
            " 2D)                                                             \n",
            "                                                                 \n",
            " flatten_9 (Flatten)         (None, 1152)              0         \n",
            "                                                                 \n",
            " dense_18 (Dense)            (None, 32)                36896     \n",
            "                                                                 \n",
            " dense_19 (Dense)            (None, 10)                330       \n",
            "                                                                 \n",
            " dropout (Dropout)           (None, 10)                0         \n",
            "                                                                 \n",
            "=================================================================\n",
            "Total params: 68,458\n",
            "Trainable params: 68,458\n",
            "Non-trainable params: 0\n",
            "_________________________________________________________________\n"
          ]
        }
…
      "cell_type": "code",
      "execution_count": null,
      "metadata": {
        "id": "-ElfTFsTcTLg",
        "outputId": "38de4f0f-fc0f-4f9f-edf3-ffbc39b9d20f"
      },
      "outputs": [
        {
          "name": "stdout",
          "output_type": "stream",
          "text": [
            "Model: \"sequential_24\"\n",
            "_________________________________________________________________\n",
            " Layer (type)                Output Shape              Param #   \n",
            "=================================================================\n",
            " conv2d_24 (Conv2D)          (None, 32, 32, 128)       3584      \n",
            "                                                                 \n",
            " max_pooling2d_24 (MaxPoolin  (None, 8, 8, 128)        0         \n",
            " g2D)                                                            \n",
            "                                                                 \n",
            " flatten_24 (Flatten)        (None, 8192)              0         \n",
            "                                                                 \n",
            " dense_52 (Dense)            (None, 32)                262176    \n",
            "                                                                 \n",
            " dense_53 (Dense)            (None, 10)                330       \n",
            "                                                                 \n",
            "=================================================================\n",
            "Total params: 266,090\n",
            "Trainable params: 266,090\n",
            "Non-trainable params: 0\n",
            "_________________________________________________________________\n",
            "Number of labels: 10\n",
…
      "cell_type": "code",
      "execution_count": null,
      "metadata": {
        "id": "PNlt-Y5ocTLl",
        "outputId": "aecb6248-c1f0-4cf8-c501-7125793878c5"
      },
      "outputs": [
        {
          "name": "stdout",
          "output_type": "stream",
          "text": [
            "Model: \"sequential_27\"\n",
            "_________________________________________________________________\n",
            " Layer (type)                Output Shape              Param #   \n",
            "=================================================================\n",
            " conv2d_53 (Conv2D)          (None, 32, 32, 16)        448       \n",
            "                                                                 \n",
            " max_pooling2d_32 (MaxPoolin  (None, 32, 32, 16)       0         \n",
            " g2D)                                                            \n",
            "                                                                 \n",
            " conv2d_54 (Conv2D)          (None, 32, 32, 8)         1160      \n",
            "                                                                 \n",
            " max_pooling2d_33 (MaxPoolin  (None, 16, 16, 8)        0         \n",
            " g2D)                                                            \n",
            "                                                                 \n",
            " conv2d_55 (Conv2D)          (None, 16, 16, 4)         292       \n",
            "                                                                 \n",
            " max_pooling2d_34 (MaxPoolin  (None, 16, 16, 4)        0         \n",
            " g2D)                                                            \n",
            "                                                                 \n",
            " batch_normalization_11 (Bat  (None, 16, 16, 4)        16        \n",
            " chNormalization)                                                \n",
            "                                                                 \n",
            " flatten_16 (Flatten)        (None, 1024)              0         \n",
            "                                                                 \n",
            " dense_37 (Dense)            (None, 32)                32800     \n",
            "                                                                 \n",
            " dense_38 (Dense)            (None, 32)                1056      \n",
            "                                                                 \n",
            " dense_39 (Dense)            (None, 10)                330       \n",
            "                                                                 \n",
            "=================================================================\n",
            "Total params: 36,102\n",
            "Trainable params: 36,094\n",
            "Non-trainable params: 8\n",
            "_________________________________________________________________\n",
            "Number of labels: 10\n",
…
      "cell_type": "code",
      "execution_count": null,
      "metadata": {
        "id": "-giVeAr1cTLm",
        "outputId": "d3a7dd0f-ff12-47b2-d27b-6547d2d32cf8"
      },
      "outputs": [
        {
          "name": "stdout",
          "output_type": "stream",
          "text": [
            "Model: \"sequential_37\"\n",
            "_________________________________________________________________\n",
            " Layer (type)                Output Shape              Param #   \n",
            "=================================================================\n",
            " conv2d_90 (Conv2D)          (None, 32, 32, 32)        896       \n",
            "                                                                 \n",
            " conv2d_91 (Conv2D)          (None, 32, 32, 32)        9248      \n",
            "                                                                 \n",
            " max_pooling2d_52 (MaxPoolin  (None, 16, 16, 32)       0         \n",
            " g2D)                                                            \n",
            "                                                                 \n",
            " dropout_32 (Dropout)        (None, 16, 16, 32)        0         \n",
            "                                                                 \n",
            " conv2d_92 (Conv2D)          (None, 16, 16, 64)        18496     \n",
            "                                                                 \n",
            " conv2d_93 (Conv2D)          (None, 16, 16, 64)        36928     \n",
            "                                                                 \n",
            " max_pooling2d_53 (MaxPoolin  (None, 8, 8, 64)         0         \n",
            " g2D)                                                            \n",
            "                                                                 \n",
            " dropout_33 (Dropout)        (None, 8, 8, 64)          0         \n",
            "                                                                 \n",
            " conv2d_94 (Conv2D)          (None, 8, 8, 128)         73856     \n",
            "                                                                 \n",
            " conv2d_95 (Conv2D)          (None, 8, 8, 128)         147584    \n",
            "                                                                 \n",
            " max_pooling2d_54 (MaxPoolin  (None, 4, 4, 128)        0         \n",
            " g2D)                                                            \n",
            "                                                                 \n",
            " dropout_34 (Dropout)        (None, 4, 4, 128)         0         \n",
            "                                                                 \n",
            " flatten_24 (Flatten)        (None, 2048)              0         \n",
            "                                                                 \n",
            " dense_54 (Dense)            (None, 128)               262272    \n",
            "                                                                 \n",
            " dropout_35 (Dropout)        (None, 128)               0         \n",
            "                                                                 \n",
            " dense_55 (Dense)            (None, 10)                1290      \n",
            "                                                                 \n",
            "=================================================================\n",
            "Total params: 550,570\n",
            "Trainable params: 550,570\n",
            "Non-trainable params: 0\n",
            "_________________________________________________________________\n",
            "Number of labels: 10\n",
…
      "cell_type": "code",
      "execution_count": null,
      "metadata": {
        "id": "QJlgQd2gcTLp",
        "outputId": "ddcf4533-0d61-4c74-85da-11b9da219ae3"
      },
      "outputs": [
        {
          "name": "stdout",
          "output_type": "stream",
          "text": [
            "Model: \"sequential_38\"\n",
            "_________________________________________________________________\n",
            " Layer (type)                Output Shape              Param #   \n",
            "=================================================================\n",
            " conv2d_96 (Conv2D)          (None, 32, 32, 32)        896       \n",
            "                                                                 \n",
            " conv2d_97 (Conv2D)          (None, 32, 32, 32)        9248      \n",
            "                                                                 \n",
            " max_pooling2d_55 (MaxPoolin  (None, 16, 16, 32)       0         \n",
            " g2D)                                                            \n",
            "                                                                 \n",
            " dropout_36 (Dropout)        (None, 16, 16, 32)        0         \n",
            "                                                                 \n",
            " conv2d_98 (Conv2D)          (None, 16, 16, 64)        18496     \n",
            "                                                                 \n",
            " conv2d_99 (Conv2D)          (None, 16, 16, 64)        36928     \n",
            "                                                                 \n",
            " max_pooling2d_56 (MaxPoolin  (None, 8, 8, 64)         0         \n",
            " g2D)                                                            \n",
            "                                                                 \n",
            " dropout_37 (Dropout)        (None, 8, 8, 64)          0         \n",
            "                                                                 \n",
            " conv2d_100 (Conv2D)         (None, 8, 8, 128)         73856     \n",
            "                                                                 \n",
            " conv2d_101 (Conv2D)         (None, 8, 8, 128)         147584    \n",
            "                                                                 \n",
            " max_pooling2d_57 (MaxPoolin  (None, 4, 4, 128)        0         \n",
            " g2D)                                                            \n",
            "                                                                 \n",
            " dropout_38 (Dropout)        (None, 4, 4, 128)         0         \n",
            "                                                                 \n",
            " flatten_25 (Flatten)        (None, 2048)              0         \n",
            "                                                                 \n",
            " dense_56 (Dense)            (None, 128)               262272    \n",
            "                                                                 \n",
            " dropout_39 (Dropout)        (None, 128)               0         \n",
            "                                                                 \n",
            " flatten_26 (Flatten)        (None, 128)               0         \n",
            "                                                                 \n",
            " dense_57 (Dense)            (None, 10)                1290      \n",
            "                                                                 \n",
            "=================================================================\n",
            "Total params: 550,570\n",
            "Trainable params: 550,570\n",
            "Non-trainable params: 0\n",
            "_________________________________________________________________\n",
            "Number of labels: 10\n",
…
      "cell_type": "code",
      "execution_count": null,
      "metadata": {
        "id": "4kUzU4pkcTLt",
        "outputId": "71f08bd4-3890-4a03-f431-883b7a3b9377"
      },
      "outputs": [
        {
          "name": "stdout",
          "output_type": "stream",
          "text": [
            "Model: \"sequential_39\"\n",
            "_________________________________________________________________\n",
            " Layer (type)                Output Shape              Param #   \n",
            "=================================================================\n",
            " conv2d_104 (Conv2D)         (None, 32, 32, 32)        896       \n",
            "                                                                 \n",
            " batch_normalization_20 (Bat  (None, 32, 32, 32)       128       \n",
            " chNormalization)                                                \n",
            "                                                                 \n",
            " conv2d_105 (Conv2D)         (None, 32, 32, 32)        9248      \n",
            "                                                                 \n",
            " batch_normalization_21 (Bat  (None, 32, 32, 32)       128       \n",
            " chNormalization)                                                \n",
            "                                                                 \n",
            " max_pooling2d_58 (MaxPoolin  (None, 16, 16, 32)       0         \n",
            " g2D)                                                            \n",
            "                                                                 \n",
            " dropout_40 (Dropout)        (None, 16, 16, 32)        0         \n",
            "                                                                 \n",
            " conv2d_106 (Conv2D)         (None, 16, 16, 64)        18496     \n",
            "                                                                 \n",
            " batch_normalization_22 (Bat  (None, 16, 16, 64)       256       \n",
            " chNormalization)                                                \n",
            "                                                                 \n",
            " conv2d_107 (Conv2D)         (None, 16, 16, 64)        36928     \n",
            "                                                                 \n",
            " batch_normalization_23 (Bat  (None, 16, 16, 64)       256       \n",
            " chNormalization)                                                \n",
            "                                                                 \n",
            " max_pooling2d_59 (MaxPoolin  (None, 8, 8, 64)         0         \n",
            " g2D)                                                            \n",
            "                                                                 \n",
            " dropout_41 (Dropout)        (None, 8, 8, 64)          0         \n",
            "                                                                 \n",
            " conv2d_108 (Conv2D)         (None, 8, 8, 128)         73856     \n",
            "                                                                 \n",
            " batch_normalization_24 (Bat  (None, 8, 8, 128)        512       \n",
            " chNormalization)                                                \n",
            "                                                                 \n",
            " conv2d_109 (Conv2D)         (None, 8, 8, 128)         147584    \n",
            "                                                                 \n",
            " batch_normalization_25 (Bat  (None, 8, 8, 128)        512       \n",
            " chNormalization)                                                \n",
            "                                                                 \n",
            " max_pooling2d_60 (MaxPoolin  (None, 4, 4, 128)        0         \n",
            " g2D)                                                            \n",
            "                                                                 \n",
            " dropout_42 (Dropout)        (None, 4, 4, 128)         0         \n",
            "                                                                 \n",
            " flatten_27 (Flatten)        (None, 2048)              0         \n",
            "                                                                 \n",
            " dense_58 (Dense)            (None, 128)               262272    \n",
            "                                                                 \n",
            " dropout_43 (Dropout)        (None, 128)               0         \n",
            "                                                                 \n",
            " flatten_28 (Flatten)        (None, 128)               0         \n",
            "                                                                 \n",
            " dense_59 (Dense)            (None, 10)                1290      \n",
            "                                                                 \n",
            "=================================================================\n",
            "Total params: 552,362\n",
            "Trainable params: 551,466\n",
            "Non-trainable params: 896\n",
            "_________________________________________________________________\n",
            "Number of labels: 10\n",
…
